pytorch/checkpoints/my_checkpoint.pth.tar (torch, 116065 bytes, 18 tensors)

conv1.weight f4 [8, 1, 3, 3]
00000000: 3813 2abe 2b3f 003f 02e2 803e 84b3 cc3e
00000010: 3588 d73e 8264 a03e 7cf5 a83e 33ec 013f
00000020: f82b f93e 3ef5 053f 3a78 1b3f 7692 a53d
00000030: 6b40 e63e e0a3 513e 092e 9dbd 6101 133f
00000040: ab88 393e 5cf5 0cbf 0543 d33e 198d 3b3f
00000050: d81f 293f ef44 52be f219 8abd 33e9 0e3f
00000060: 7293 88bf 1c9c 6bbf 9151 0fbe 30ca 9d3e
00000070: 2c35 283f 73dd e03e a11f 9e3e c3f9 033f
00000080: ccaf a6bd eb65 6abf 0bcd 7ebf 9cad 31bf
00000090: bd5f 9bbe eba2 65bf 15f1 cfbe e2f0 7f3e
000000a0: 62e8 3abe 00fb bbbd ee4b 353f a135 243f
000000b0: 89db e03e 08e9 493f 7cf2 2dbe 9130 80bf
000000c0: 1059 4f3f 1e03 fd3a 5a2f 09bf 1b22 aa3e
000000d0: f421 a53d 8c69 12bd 3c74 aabc 17b3 01bf
000000e0: d609 ccbe 15d2 5b3e ab86 e73e 0ca4 2d3f
000000f0: ed88 0a3f 6d3e 153e d9ee d63e d7af efbd
00000100: 3a86 a13e 99b1 d93e 8909 a33e 2154 9b3e
00000110: 4220 29bd 128f c23e a601 1c3f 74e0 afbe
-0.16608894 0.50096387 0.2517243 0.3998071 0.42096105 0.3132668 0.3299979 0.50751036
0.48666358 0.52327335 0.60730326 0.08084576 0.44971022 0.2047267 -0.07674796 0.5742398
0.18118541 -0.5506189 0.4126207 0.7326217 0.66064215 -0.20534109 -0.0674323 0.55824584
-1.0669997 -0.9203508 -0.13995959 0.3081832 0.65706134 0.43918952 0.30883506 0.5155298
-0.08138999 -0.91561764 -0.9953162 -0.6940553 -0.3034648 -0.8970172 -0.40613618 0.24994233
-0.1825271 -0.09178734 0.70818985 0.6414433 0.43917492 0.788712 -0.16987032 -1.0014821
0.80995274 0.0019303297 -0.5358788 0.33229145 0.08063117 -0.03574519 -0.020807378 -0.50663894
-0.39851254 0.21466859 0.4521993 0.6782844 0.5411518 0.14574595 0.419791 -0.11703461
0.3154772 0.4251831 0.31843212 0.30337623 -0.04129053 0.3799978 0.60940015 -0.34350932

conv1.bias f4 [8]
00000000: c9ba 41bd 0baa ecbc 9e82 f8ba 8953 1e3e
00000010: c89f 233d 8550 c13d 6631 08be 0616 85bd
-0.047297273 -0.028889677 -0.0018959825 0.15461554 0.0399473 0.09439186 -0.13300094 -0.06498341

conv2.weight f4 [16, 8, 3, 3]
00000000: 115a 193e 454e e93d c843 85bd b964 24bd
00000010: 54c7 0b3d 1e8e ce3d 9a08 4ebe e1cd b7bd
00000020: f765 0c3e 34a2 993d 207a 00bd 6cc4 233b
00000030: 91ff fbbd 6bae 153c cd70 2fbe cc87 443b
00000040: a7ce ffbd 3326 53bd 7155 523e a3cb c8be
00000050: f3e2 b93d 17f6 083f 1b11 7e3d 25b4 d0be
00000060: 71a0 213e c58f db3e 116c bb3e 153f 74bd
00000070: 1985 0abf 402c e43d ec87 7f3d 609e 26bf
00000080: 7821 22bf d144 ebbd 2ba8 973b ff84 cdbd
00000090: 0658 9c3e cc47 5e3e 173e 8dbe 8f89 efbe
000000a0: 0e81 893e dd9e 1b3f 3e0d 8c3d 0ee9 1cbf
000000b0: 3e2a 3f3e 8e96 683e dbbd 7e3d 40ea 68be
000000c0: e5d0 2fbd 4dde 503e a2f3 0b3e 4cb3 9fbe
000000d0: c626 13be c70e 1b3d 0951 843e 8ec3 043e
000000e0: 6945 f4bd ba34 c1bd 928b b83d 23b8 d33d
000000f0: 6fee 57be 8435 53be d22c 473d 556b 193e
00000100: 6020 cf3d 31dc 08be 2672 81bd ce13 30bd
00000110: 8fd6 af3d b75b ecbd aa94 b4bd 47bf 40bd
00000120: 2c28 0c3e 45ac 963d 4e11 0dbe 85d6 95bd
00000130: f0d0 e83d bd5c b3bd 5703 7cbe 6901 673e
00000140: 536a 9bbd 9c32 59bc 7200 8fbe 805b dcbc
00000150: 6508 ca3d a0d7 40bd 4085 ae3b 649c e7bd
00000160: dba1 28be 8bd9 673e 3ac2 aebc 71d5 72bd
00000170: 00ef 61be 9e00 6f3d d940 9b3e 1bd6 523e
00000180: 49f9 84bd 23fd 9e3e 5265 3fbe d089 f5bd
00000190: b54f 8ebe 3886 ddbd c09c e8ba 9444 6fbe
000001a0: 778c 96bd 4d6d cebd 2ba0 f5be 6bc6 06bf
000001b0: b3bd e83e b27f c53e 437f 843e a16a 003d
000001c0: 67db 4a3c cd46 203e c5c7 c4be 97f5 a4be
000001d0: eaa7 8c3e 13a4 503d 84de 3dbe da0f 1e3c
000001e0: a58e 7dbd 4ac2 29be d6a3 223e 1679 063e
000001f0: da51 4d3d 5d83 163f eee4 103e f581 723d
00000200: fed0 6fbd 287d 313d cc76 62bd 8734 b5bd
00000210: 5111 2bbe bfa0 4abe a1e8 47be db58 1b3e
00000220: 2c97 febd 88fe c2bd d470 cebd 8af1 a63c
00000230: a0d6 bebd 3bfb 34be 694f a8bd 197a bc3d
00000240: 9450 c03d 6c72 083e 5d81 6c3e 9769 28be
00000250: ef05 0cbe 08c9 95be 678d 4fbe 3e68 33be
00000260: e223 93bc eddf 9c3d be5a 9bbd d65a fb3d
00000270: 7415 903d b0ec 2a3e ed43 563b a073 c1be
00000280: b6d3 29be 17da 6bbe 910e eb3b 8313 80be
00000290: ba01 1bbe 8c45 c73e 36ea 8c3e d2f9 203e
000002a0: bc5c 25be e8b6 34be b99d f7be f71c 10be
000002b0: 9650 73be 99c0 fdbd 6f11 423d ab26 fc3e
000002c0: 39f9 073f 1f21 843e 34c4 143f 9f1d 60be
000002d0: 0043 d13e 410e 8a3e 44db 043d 674b 99be
000002e0: 900a d2bc 9dab 30bf b15c 083f 4810 de3e
000002f0: 5b2d e43d c307 883e 8be3 353d 84b7 5dbe
00000300: 9b0b f33c c508 11be 71fe d9bd 34df 21be
00000310: 5015 a2be 5b03 56bd 60e3 de3d 1b6b 4e3e
00000320: 1b79 643e 246a 53bc c0d9 cf3d cc8b a7be
00000330: d4c2 60bd 0bfd 3d3c e4ca fd3d 6274 b93d
00000340: eef9 413d 87d3 193e ffe6 8abe e7fc a9bd
00000350: d27b 0bbd 09a8 90bd f63e c2bd d06e ccbd
00000360: 7579 bbbe c3a2 79be b4e3 2b3c eb20 21be
00000370: 8195 583e 244c 0f3d e8c2 073e 8e41 523b
00000380: 0433 d2bd 03b9 bfbe d35e cbbe b6b3 7cbe
00000390: 9e3f 6cbe c4ad aa3e e60e 973e c6bd 633e
000003a0: 47e5 8e3e 3b16 2cbe ffae 36be 16a5 d6be
000003b0: 403f f2be 7d12 e6be b53a 04bf da9f 733e
000003c0: 2d7d cebe 99a2 123e ad24 6b3c a39a a93e
000003d0: 5c3b 8b3e 0b96 6f3e 43f3 e1be e626 843d
000003e0: 3525 e33e f426 e8be 1036 383e bb40 bbbe
000003f0: 1fb0 a4bd c5e7 2e3f 5362 3b3f c27d 3dbd
0.14975764 0.11391882 -0.06507069 -0.04013512 0.03412564 0.100857005 -0.20120469 -0.08974815
0.13710772 0.07501641 -0.031366467 0.0024988903 -0.12304605 0.009135823 -0.17132874 0.0029988168
-0.12490588 -0.0515501 0.20540406 -0.39217862 0.0907649 0.53500503 0.06202803 -0.4076244
0.1578386 0.42883125 0.36605886 -0.059630472 -0.5410934 0.111412525 0.062385485 -0.6508541
-0.6333232 -0.11487735 0.0046282015 -0.100351326 0.30535907 0.21707076 -0.27586433 -0.46784636
0.26856273 0.6078928 0.06838463 -0.61293113 0.18668458 0.22713682 0.06219278 -0.2274561
-0.042923827 0.20397301 0.13667157 -0.3119148 -0.1437026 0.03785589 0.25843075 0.12965223
-0.119273014 -0.09433885 0.09010996 0.10337856 -0.21087049 -0.20625883 0.04862673 0.1498235
0.10113597 -0.13365246 -0.063206 -0.042987637 0.08585846 -0.11540931 -0.08817418 -0.047057416
0.136872 0.073570766 -0.13776132 -0.07316307 0.11367977 -0.08757923 -0.24610649 0.22559132
-0.07588639 -0.013256695 -0.27930027 -0.0268991 0.098648824 -0.047080636 0.005325943 -0.11309126
-0.16467993 0.2264158 -0.021332849 -0.059285585 -0.22063828 0.058350198 0.30322912 0.20589487
-0.0649286 0.31052503 -0.18690994 -0.11989176 -0.27795187 -0.10816616 -0.001774691 -0.23366004
-0.0735101 -0.10079441 -0.4797376 -0.5264651 0.4545723 0.38573986 0.25878343 0.03135169
0.012381411 0.15652008 -0.38433662 -0.3221862 0.27471858 0.050937723 -0.18541914 0.009647334
-0.061903615 -0.16578022 0.15882811 0.13132128 0.050126888 0.58794194 0.1414983 0.059205968
-0.05854892 0.04333225 -0.055289075 -0.088479094 -0.16705824 -0.19787882 -0.19522335 0.15170614
-0.124311775 -0.09521204 -0.10080114 0.020378847 -0.0931828 -0.17673962 -0.08218271 0.09202976
0.09390369 0.13324898 0.23096223 -0.1644653 -0.13674138 -0.29254937 -0.20268784 -0.17520234
-0.017961446 0.07659898 -0.07585667 0.12273185 0.07035342 0.16691852 0.0032694296 -0.37783527
-0.16584668 -0.23032413 0.0071733673 -0.25014886 -0.15137377 0.38920248 0.2752244 0.15720299
-0.16148657 -0.17647898 -0.4836252 -0.14073549 -0.2376121 -0.12390251 0.047379907 0.4924825
0.5311466 0.2580652 0.5811188 -0.218863 0.4087143 0.26964 0.03243567 -0.2994034
-0.025639802 -0.6901186 0.53266436 0.43371797 0.11141463 0.26568422 0.044406455 -0.21652037
0.02966862 -0.14163502 -0.10644234 -0.15807801 -0.31656885 -0.052249294 0.10883212 0.20158045
0.22311823 -0.012903724 0.101489544 -0.32723844 -0.054873303 0.011595975 0.12392214 0.090554014
0.047357492 0.15022098 -0.2712936 -0.083001904 -0.03405363 -0.070633 -0.09484665 -0.09982073
-0.36616102 -0.24378495 0.0104913 -0.15735213 0.21150781 0.034984723 0.13257945 0.003208253
-0.10263637 -0.3744584 -0.39720783 -0.2467793 -0.23071143 0.33335698 0.29503554 0.22240362
0.279093 -0.16805355 -0.17840193 -0.41922826 -0.4731388 -0.4493598 -0.5165208 0.23791447
-0.40329877 0.14319839 0.014352006 0.3312579 0.27193725 0.2339708 -0.44130906 0.06452732
0.44364324 -0.4534222 0.17989373 -0.36572823 -0.08041405 0.683224 0.73196906 -0.04626251

conv2.bias f4 [16]
00000000: c7bb a6be f722 793c a52b 35be 7d88 c8bd
00000010: 2b39 9ebc 8a4d 7cbe 5fd5 1ebe 7d8e 9dbd
00000020: 8025 873d 44a4 a5bc 7288 833d 1d17 e7bd
00000030: 67c7 f53d 8be8 c8bd 0ec6 8a3d 4226 5bbe
-0.32565138 0.01520609 -0.1769243 -0.09791658 -0.01931437 -0.24638954 -0.15511082 -0.07693193
0.065989494 -0.02021993 0.06422509 -0.112837054 0.120009236 -0.09809979 0.06776057 -0.21401313

fc1.weight f4 [10, 784]
00000000: f726 69be abce 9d3c eddd 72bc 54ff a2bd
00000010: 9df2 5bbe c735 a7be b7e2 0bbe 68d1 3bbd
00000020: 1209 b93b 70ca 94bc 075c 333d 2337 7b3d
00000030: 38a5 943c 0b46 a33c 52a2 0d3e 5045 0bbe
00000040: def4 6fbe 4a49 9d3e adbf 333e ca35 443d
00000050: 7c20 673e 3cce 11bb 86d8 ef3a e014 a9bc
00000060: ccb2 9ebd 4cd8 d2bc 3993 293e 433b 92bb
00000070: 3405 163e 595d afbd 1bb1 61bd 2ac1 a93d
00000080: 92b1 54be 324a b4bd e8e4 a03d 225a 6cbe
00000090: 24b5 943b 43f1 67bd 24fb 4f3e ba97 923b
000000a0: 3e7a 9dbe e1fd 23be e6f2 8bbc 6dcc c2bd
000000b0: 740e 7d3c e5bf 89be 87e8 4bbe d348 adbe
000000c0: 6d5d ebbd 15ca 7abe 735f 35be d689 8dbe
000000d0: bbe7 7abd e200 d8bd 5d96 5fbb 245a 5cbe
000000e0: ba6a 68be ee09 f1bd aa0e 0abe d67c 71bc
000000f0: 15fa bf3c 65e3 a43d e963 aebd 046c c5bd
00000100: 3ed7 02bd e3b1 2f3e 1c4b ae3d 5b91 323e
00000110: 74f3 c63d f18e 2a3d cb81 20be 7aea dc3d
00000120: 0a6d cabc 6dac d0bd 8238 04bd 39cb aa3d
00000130: 8d59 3ebe 7ee2 0a3e 71c6 0dbc 0cda 553e
00000140: deee 0cbe 68a4 67be efe2 0fbe 4ffa 3f3d
00000150: 9fad 093d fd71 0c3e 9b16 be3d dfa4 12be
00000160: 47ed 1abe d56c 3cbe 2aaa cebd dd76 f3bd
00000170: b132 2c3e d888 da3d f163 e03c e843 1ebe
00000180: bbb5 d7bd 8c0d 31be 5ece 1d3e eaff e53d
00000190: 3e90 2c3e b4a8 b33d 6caf ca3d ec66 fc3d
000001a0: 9ad4 46bc 318e 53bd 24a8 84bc f22a e7be
000001b0: 2b98 c7bd de95 4dbe 6edf 15be abcb bfbd
000001c0: c553 363e 5b49 4abe 1642 18be 8547 a4bd
000001d0: 14bf 4cbe de81 7dbe c951 be3d de2b 02be
000001e0: 8c53 bcbd e159 06be 47b8 b6bd 496c 97be
000001f0: d8e5 a1bd d8f9 edbd d672 4f3e 94f2 3cbd
00000200: 6e33 22be a462 8fbe 1fca 0cbd 59d5 293e
00000210: 480d a23d 23a6 213c f9da fa3c 9393 87bd
00000220: 7230 5e3d 48ba 673d 4d42 953d 54c6 94bd
00000230: c2a9 6b3d 3f86 163e aad3 dd3d 1510 093e
00000240: fad2 d53d 80ac 2a3d 632a 833c e2fd 53bd
00000250: 51e2 ecbd 2c30 cbbd d66a fbbb 3df2 533c
00000260: dcaa b03c feae f23c 46f8 823e d81d bfbd
00000270: 54dc 09bd d9ac 8abc 21d9 a53d eaa6 8c3d
00000280: 99e6 1fbc f28a 2cbe 3d2f ee3d 8686 ba3d
00000290: 9aec 153d 0217 abbd cc76 22be 01b8 c7bd
000002a0: 0272 0e3d c135 6b3e 7871 133e 8177 acbd
000002b0: da33 51bd 2f7c 41bd c1b6 93be a391 213e
000002c0: b246 b1bd 90fb 51bd 0423 263e d8bb 943d
000002d0: 7220 a43d b955 fabe b6fe bcbd bcb8 8bbe
000002e0: d7bd 6abd eec1 103d 12ca d53d 142c 093e
000002f0: c603 223e 1ca9 743b fd00 06bf 8bd3 51bf
00000300: 2909 b6be 1337 0dbe 628b 33be 1687 c2bd
00000310: d49a f63d aaeb 50bd e8b8 78bc 5863 d4bd
00000320: 0110 5a3e 410b e1bc 2f79 02bd abaa 34bc
00000330: 6646 ccbd d7f9 1ebe e1a3 e43d 7147 993d
00000340: 731e babb 4113 11be 1150 ddbd 05ef 01be
00000350: 5ae8 71bd 9129 22be 300a 35be 630f a43d
00000360: e7fd 1c3d 505d 083d 262b a1be afab 98be
00000370: 805f 90be 8af4 08bd b2b6 803c 0568 b2be
00000380: bebc 1dbc c789 11bd 6fe2 cfbc 70ad fcbd
00000390: 7f8e c53c e17f 9fbd ad5f f6bd a95e bb3d
000003a0: e799 a9bd 1e3b ea3a 955a 49bb 84fb c8bc
000003b0: 00a7 18be 850c 56be 957d 353c 3a79 033d
000003c0: 7d2d b5bd 370c dabd bea7 b13d df30 99be
000003d0: bce5 70be d388 c63c a88b f4bc a876 383b
000003e0: ec41 913a 1f2c 233c 829e 693d 07fa 7fbd
000003f0: 958e 0f3e fbbc cd3c 5070 11be 941f 2d3d
-0.2276877 0.019263586 -0.014823419 -0.07958856 -0.21479268 -0.32658216 -0.13660704 -0.045854002
0.005646833 -0.018162936 0.043788936 0.06133188 0.018145189 0.01993086 0.13831452 -0.1360066
-0.23433253 0.30719978 0.17553587 0.04790286 0.22570986 -0.002224817 0.0018298782 -0.020639837
-0.077489465 -0.025737904 0.16560067 -0.004462631 0.14650422 -0.085627265 -0.05510054 0.08288796
-0.20770863 -0.08803214 0.078561604 -0.23081258 0.004538195 -0.05662657 0.20310646 0.0044736536
-0.30757326 -0.16014816 -0.017083596 -0.095116474 0.01544534 -0.26904216 -0.19912921 -0.33844623
-0.11492429 -0.2449115 -0.17712192 -0.27644223 -0.06125615 -0.105470434 -0.0034116723 -0.21518761
-0.22696963 -0.11769472 -0.13482156 -0.014739236 0.023434678 0.080511846 -0.0851515 -0.09639743
-0.031943552 0.17157702 0.0851042 0.17438261 0.09714404 0.041640226 -0.15674512 0.1078691
-0.024710197 -0.101891376 -0.032280453 0.08339543 -0.18588848 0.13562962 -0.008653269 0.2088396
-0.13762996 -0.2262131 -0.14051412 0.046869572 0.033612844 0.13715358 0.092816554 -0.14320706
-0.15129577 -0.18400891 -0.1009105 -0.11887906 0.16816212 0.10670632 0.027391406 -0.15455592
-0.10532709 -0.17290324 0.15410754 0.11230452 0.16851899 0.08772412 0.0989674 0.12324318
-0.012135649 -0.051649276 -0.016193457 -0.45149952 -0.097458206 -0.20076701 -0.14636013 -0.093650185
0.17805393 -0.19754545 -0.1486896 -0.08021454 -0.19994766 -0.24756572 0.09292943 -0.12712047
-0.09195623 -0.13120224 -0.08921867 -0.29574803 -0.07905167 -0.116199195 0.2025865 -0.046129778
-0.15839931 -0.28004944 -0.034372445 0.16585292 0.079126894 0.00986627 0.030621992 -0.066199444
0.05424542 0.056574136 0.072880365 -0.072643906 0.05753494 0.14699648 0.10831387 0.13385041
0.10440631 0.041668415 0.016011423 -0.051755793 -0.11566604 -0.099212974 -0.007672648 0.012936172
0.021565847 0.029624458 0.25580043 -0.09331864 -0.033657387 -0.016928123 0.08098055 0.06867774
-0.009759569 -0.16849878 0.11630104 0.091076896 0.036602594 -0.08353998 -0.1586563 -0.09751893
0.034776695 0.22969724 0.14398754 -0.08421231 -0.05107484 -0.04723757 -0.28850368 0.15778212
-0.08656062 -0.0512653 0.16224295 0.07262391 0.08014001 -0.48893526 -0.0922827 -0.2728938
-0.05730995 0.035341196 0.104389325 0.1339572 0.15821752 0.0037332242 -0.5234526 -0.81963414
-0.35553864 -0.1379054 -0.17533639 -0.09498422 0.1204125 -0.051005997 -0.015180804 -0.10370511
0.21295168 -0.027471187 -0.03185385 -0.011027019 -0.09974365 -0.15524994 0.1116407 0.074843295
-0.0056798994 -0.14167501 -0.10806287 -0.12688835 -0.05905948 -0.15836169 -0.17679667 0.08010747
0.038328078 0.033292115 -0.31478232 -0.29818484 -0.2819786 -0.033436336 0.015712116 -0.34844986
-0.009627519 -0.035531785 -0.025376527 -0.12337768 0.024115799 -0.07788063 -0.120299675 0.09148914
-0.08281308 0.0017870401 -0.0030724157 -0.024533994 -0.14907455 -0.20903213 0.011077304 0.032098033
-0.08846567 -0.10646861 0.086745724 -0.29920098 -0.23525137 0.024235165 -0.02985175 0.0028146897
0.0011082268 0.00995925 0.05703593 -0.062494304 0.14019234 0.025114527 -0.14203 0.042266443

fc1.bias f4 [10]
00000000: 2664 093e b8ec 643d 574e 483d e3c3 4bbd
00000010: 0823 98bd 999b 1abd 63d6 d4bc 368d dbbc
00000020: d217 ebbb 4bbc 3c3d
0.1341711 0.055889815 0.048902836 -0.04974736 -0.07428557 -0.037746046 -0.025981134 -0.026800733
-0.0071744705 0.046078008

exp_avg f4 [8, 1, 3, 3]
00000000: 2440 023b b588 cd3a 4964 153b 9861 803b
00000010: 3b68 183b 75fe 2c3b ca2d fd39 b02b 883a
00000020: 3bf9 543b 64c9 003b 6a2f ef3a 0a63 c13a
00000030: 43ff 473b 6cc7 153b 15a7 e43a 5fa3 4a3b
00000040: 646f 293b a105 093b 1e63 633a 658e 77ba
00000050: 2a8e cc39 2d91 87b9 966d eb39 d0f7 9a3a
00000060: 995c 67ba 686f ee39 1629 013a 35fb 83bb
00000070: 8407 e4bb 7a2c efbb ec95 18bb e5d2 91bb
00000080: 980a a5bb b36c e4b9 f319 2bbb e4e4 46bb
00000090: 36d4 b4b9 9a5a 38bb 5bfa a6bb 2267 90ba
000000a0: a45b 58bb fd8e e8bb 825c 4dbb 0fa4 d9bb
000000b0: b6c0 e7bb 7dad a33b fed7 de3b 4117 d03b
000000c0: 4eed 9a3b 8234 c03b 834f c83b 2d18 923b
000000d0: c521 b13b 4e72 b83b d57e 09bb 3bd5 64bb
000000e0: 35d6 92bb 704e 84ba b3dc 96bb ac07 a6bb
000000f0: f0d8 03bb bbca aabb bb45 53bb a6b4 a7b9
00000100: f063 86ba 07cd 96b8 2dcf 153b 0281 a539
00000110: 0126 ce39 c474 b739 f58e bcb9 9d99 cd3a
0.0019874657 0.0015681001 0.002279537 0.003917884 0.0023255486 0.0026396785 0.00048290036 0.0010388996
0.0032497186 0.0019651288 0.0018248383 0.0014754247 0.0030517138 0.002285446 0.0017444814 0.003092013
0.0025853748 0.0020907896 0.00086741324 -0.00094435207 0.00039015833 -0.0002585737 0.0004490434 0.0011823121
-0.0008825749 0.00045477902 0.0004927082 -0.004027749 -0.0069589037 -0.007299003 -0.002328272 -0.0044501894
-0.0050366633 -0.00043568536 -0.0026107996 -0.0030348832 -0.00034490385 -0.0028130175 -0.0050957627 -0.0011017064
-0.0033013606 -0.0070971237 -0.0031335657 -0.0066418718 -0.0070725335 0.0049950466 0.0068006506 0.0063504283
0.004727996 0.0058656344 0.006112994 0.0044584484 0.005405637 0.0056288606 -0.0020980139 -0.0034917134
-0.004481102 -0.0010094177 -0.004603946 -0.0050668325 -0.0020118318 -0.0052121556 -0.0032237608 -0.00031987316
-0.0010253172 -7.190747e-05 0.0022859082 0.0003156737 0.00039319697 0.00034991477 -0.00035964666 0.0015686039

exp_avg_sq f4 [8, 1, 3, 3]
00000000: 3406 c138 fb70 4039 174c 3939 9bb4 ef38
00000010: 936b 3939 df42 0b39 4205 1539 9418 3639
00000020: 4d9c 0239 46d3 2b39 a96b 4439 2658 fe38
00000030: ce72 6139 80cb 5139 1e98 cc38 f43a 9439
00000040: 645e 4d39 a1a4 a638 901e 8a39 c2e4 9c39
00000050: 1f03 ac39 d898 1f39 12ab 3139 4697 8439
00000060: 572f 8a38 8212 c538 56f1 4339 9eea 1f3a
00000070: 04f1 6c3a d8c3 443a 9cf4 ce39 777c e239
00000080: 9a68 c339 baa0 2639 2eb9 d538 935c 0939
00000090: 71d8 133a 2681 c839 fb08 0e3a 6c0f 6b3a
000000a0: ab6e 5e3a 850d 953a bd26 b93a 8e5f df3a
000000b0: af4e ea3a 5597 9439 13d4 3539 be48 a338
000000c0: 041e a739 b1b4 3b39 8c39 c338 ea59 a039
000000d0: 389c 6239 b774 1a39 ce86 d738 02f5 b338
000000e0: 5d5c e238 81d8 2039 bc46 3639 ff1d 5439
000000f0: 7527 5c39 515c 6439 0498 6d39 0e04 a338
00000100: a71f 1b39 394f 2439 d966 d538 36ab 0c39
00000110: a7ff b938 35c5 0c39 417b 0039 131a 7838
9.2041126e-05 0.00018352635 0.0001767132 0.000114300485 0.0001768305 0.00013280984 0.00014211706 0.00017366029
0.00012455993 0.00016386536 0.00018732123 0.00012128083 0.0002150044 0.00020007603 9.755812e-05 0.00028272683
0.00019585487 7.946161e-05 0.00026344182 0.00029925077 0.00032808722 0.0001522036 0.00016943764 0.0002528971
6.5891705e-05 9.3971394e-05 0.00018686554 0.00061003293 0.00090385997 0.00075059896 0.0003947363 0.00043198813
0.00037271233 0.00015890869 0.00010191124 0.00013099825 0.0005639857 0.00038243196 0.00054182083 0.00089668366
0.0008485119 0.0011371827 0.0014125925 0.0017042027 0.0017876233 0.0002834151 0.00017340509 7.785995e-05
0.00031875086 0.00017901023 9.3090435e-05 0.0003058457 0.00021611236 0.00014730064 0.00010277108 8.5810214e-05
0.00010793724 0.00015339443 0.00017383223 0.0002022907 0.00020995534 0.00021778165 0.00022658712 7.773201e-05
0.00014793743 0.00015669772 0.00010175788 0.00013415221 8.8691064e-05 0.00013424906 0.00012252947 5.915209e-05

exp_avg f4 [8]
00000000: 42c9 933b 031d fa3a 23c5 853b 12ae 9fbb
00000010: 5a3c 8fbc 1eb0 743b 2fb9 52bb 68bc 8a3a
0.004510076 0.0019082132 0.0040823384 -0.0048730457 -0.017484833 0.003733642 -0.0032153835 0.0010584714

exp_avg_sq f4 [8]
00000000: 1101 9339 2eed cc39 9d46 203a 049f b93a
00000010: 3fe4 863b 44aa eb39 e006 063a fead 9f39
0.0002803882 0.00039086625 0.0006114038 0.001416177 0.0041165645 0.0004494955 0.0005112719 0.00030456478

exp_avg f4 [16, 8, 3, 3]
00000000: 5d66 5abb ac38 e5ba 962c 67ba 5b4d 4ebb
00000010: 1f4b 31bb dd09 c3ba b4ce 25bb 59c5 35bb
00000020: 2d58 0abb dea1 12bb f058 16bb 8af2 dfb9
00000030: caae 1bbb bcb0 14bb 2a6e efba df1d d7ba
00000040: e110 22bb fac4 e8ba 2808 a5ba 1e49 16b9
00000050: ffdb d0b9 0f10 a8ba 7cb7 1d3a dcb3 213a
00000060: 5224 d0ba 682d 6bba 1cde 8b39 8fa7 a9ba
00000070: 6d61 c9b8 b70c 00ba f23c 8dba 0dfd 5b3a
00000080: b8bf da39 f120 b5ba 9ac3 2fba 8298 24b8
00000090: 24ae 87ba 3a80 68ba 0ef9 96b9 1b32 58ba
000000a0: 0fa3 c2ba f838 83ba a615 4cb9 0889 3f39
000000b0: 3290 67ba 17d6 cdba 190b eaba 404f dcb9
000000c0: 5826 94ba 29e0 21bb de44 8cba a319 f2b9
000000d0: e519 b6ba 0c88 2ebb ae82 e5ba 06cc 6cba
000000e0: 2679 a7b9 b9e0 cfba 51a4 f0ba aaa3 60ba
000000f0: e885 35ba 1fe0 81ba 9c89 3aba ac0e f1ba
00000100: 981e cdba b044 a4b9 8a54 edba bf90 d8ba
00000110: c48c c8ba cad3 c2ba 67b2 bdba 9af7 afba
00000120: bc35 853b a88f 5b3b 203e 913b 7e33 4b3b
00000130: a563 623b 9190 903b d500 923a b8d2 2d3b
00000140: 1429 513b 17b9 573b 558b 063b 7111 483b
00000150: b1cc 573b 1df7 1a3b b4c0 5e3b 7f7f 833a
00000160: 142c cd3a ca07 543b 1f72 353a 3cc5 393a
00000170: 075b 473a ee1b 413b cfbe 2d3b 3044 c53a
00000180: 77c7 ae3a 9191 da3a cb4e 733a 036b 653a
00000190: caf3 4b3a 74d1 693a 6b15 453b bec1 f23a
000001a0: ca57 ba3a d8bc 963a bb8f 5e3a 4010 903a
000001b0: 0216 f73a 84dc ee3a 28fa 813a 363b e339
000001c0: bbc7 8e3a 57f0 a13a 9dfc a639 c879 7838
000001d0: 3ae4 7039 cf83 1c3b 8485 8e3a 9bcd b63a
000001e0: f11b dc3a 7c8c 883a 5d6e fe3a 0e82 903a
000001f0: e671 fa39 9347 e73a 2fb8 343b f1a6 1d3b
00000200: 1483 063b de59 8b3a c90b c03a e58e e53a
00000210: 6f85 333a f28a 8e3a bdda a03a 54ce 1f3b
00000220: 0f7e fd3a 7f1d 493b 1b60 013b a065 023b
00000230: 96c2 3e3b 37cb 283a a080 cc3a 91c9 0c3b
00000240: d294 04bb 983f c3bb 8ab7 05bc 3471 fd37
00000250: eb8b 3dbb 7ea8 c1bb 7414 8f38 8f05 14bb
00000260: a0bd bebb 32e8 2ab9 0954 4cbb f86f 9cbb
00000270: 5c25 c039 b06e 11bb ae40 86bb b63b 893a
00000280: aec5 02ba 900f 13bb a8bd 43bb 5e68 31bb
00000290: fd90 f8ba ca8e 4fbb c0c4 9ebb 1049 9bbb
000002a0: e94f 09ba 0b78 71ba 92e0 78ba 8f14 0ebb
000002b0: 6115 0ebb 2833 baba bc9a dcba dd68 58bb
000002c0: 9be9 48bb 39f5 57b8 5e5a 8639 44db 99b7
000002d0: 53aa 4c3a 0072 ceb8 0665 12bb 0f2f aa38
000002e0: ad2f ba39 d2ff 013a d382 1aba dc2a 9aba
000002f0: ee6a 99ba 9fb8 a439 6ec0 27ba 1fc4 10bb
00000300: 444d 013a 2bec 633a b434 25b7 b40e 053a
00000310: 9e3a 9d39 3b48 b8b8 bf0e 77b9 7766 39bb
00000320: 644b 9dbb 05db eb39 9c2d 0fba 6a60 00bb
00000330: a61f ccb9 b017 beba e03d 37bb d165 6bba
00000340: fbd5 49bb 566f 9abb 52eb 3a39 563d e5ba
00000350: 105b 4fbb ce94 d739 bf58 acba de48 55bb
00000360: 13c4 4eba 65b8 9cba 462d 22bb 89f6 63ba
00000370: 2444 84bb 8acf 6abb d326 9aba 7948 5bbb
00000380: 8816 12bb d587 70ba 3e94 adb9 67f5 cfba
00000390: 6f43 b539 cddc e2ba 0053 54bb 7538 f1b9
000003a0: fdfa 1fbb f411 5ebb 40ab 88ba 568e 7739
000003b0: 81cd 3eb8 5b8b 59ba 5ebf 063a bce5 f03a
000003c0: d20f 8eb8 d2d4 0dbb 07c4 53ba c890 71ba
000003d0: 53b3 b039 2d88 003a 0e83 87b9 a8b5 483a
000003e0: 9c7b c239 9ca2 db38 3514 06bb 37dc d6ba
000003f0: 9218 b4b8 fdb6 79ba 4154 4c39 b54f c7b8
-0.0033325173 -0.0017488203 -0.00088185945 -0.0031479213 -0.0027052832 -0.0014880259 -0.0025300207 -0.0027736037
-0.0021109686 -0.0022374312 -0.0022941194 -0.0004271458 -0.0023755305 -0.002268835 -0.0018267084 -0.00164121
-0.00247293 -0.0017758899 -0.0012590932 -0.00014332353 -0.0003983676 -0.0012822169 0.0006016416 0.0006168464
-0.0015879965 -0.00089713046 0.0002667763 -0.0012943613 -9.602574e-05 -0.0004884707 -0.0010775609 0.00083918945
0.00041723042 -0.0013819021 -0.0006704867 -3.924268e-05 -0.001035158 -0.0008869205 -0.0002879579 -0.00082472124
-0.0014849621 -0.0010011485 -0.0001946302 0.00018266228 -0.00088334375 -0.0015704063 -0.001785609 -0.00042020716
-0.0011302931 -0.002470026 -0.0010701676 -0.00046176938 -0.0013893215 -0.0026631383 -0.0017510259 -0.00090330874
-0.00031942985 -0.0015859819 -0.0018359517 -0.000856931 -0.00069245556 -0.0009908712 -0.00071158423 -0.0018391213
-0.0015649376 -0.00031331694 -0.001810686 -0.001652263 -0.001530074 -0.0014864143 -0.0014472724 -0.0013425231
0.0040652435 0.0033502374 0.0044324547 0.0031006034 0.0034544256 0.004411765 0.0011139164 0.0026523303
0.0031915354 0.0032916719 0.0020529826 0.0030527974 0.0032928402 0.0023645826 0.0033989372 0.0010032504
0.0015653395 0.0032353275 0.00069216074 0.000708658 0.00076048117 0.002946611 0.0026511436 0.0015050229
0.0013334592 0.0016675462 0.00092814554 0.0008751603 0.0007780163 0.00089194556 0.003007258 0.0018520874
0.0014216837 0.0011500372 0.00084900454 0.0010991171 0.0018851163 0.0018223678 0.0009916471 0.0004334093
0.0010893265 0.0012354952 0.000318502 5.9241225e-05 0.00022973205 0.0023882275 0.0010873531 0.0013946773
0.0016792995 0.0010417844 0.0019411553 0.0011025087 0.00047768577 0.0017645232 0.0027575602 0.0024055804
0.0020524906 0.0010631641 0.001465195 0.0017513899 0.0006848191 0.0010875149 0.001227222 0.0024384456
0.0019339937 0.0030687747 0.0019741121 0.0019897 0.0029107681 0.0006438973 0.0015602298 0.0021482448
-0.0020230305 -0.0059585087 -0.008161435 3.0212665e-05 -0.002892251 -0.0059099784 6.822581e-05 -0.002258632
-0.005820945 -0.00016298963 -0.0031178019 -0.00477409 0.0003664893 -0.002219122 -0.004097066 0.0010470066
-0.0004988563 -0.0022439696 -0.0029867683 -0.0027070264 -0.0018964108 -0.0031670802 -0.004845232 -0.0047389343
-0.0005238043 -0.0009211308 -0.0009493913 -0.0021679734 -0.0021680223 -0.001420592 -0.0016830782 -0.0033021488
-0.0030656818 -5.1488376e-05 0.000256258 -1.8341125e-05 0.00078073627 -9.8440796e-05 -0.0022338047 8.114997e-05
0.00035512206 0.00049590797 -0.0005894128 -0.0011762041 -0.0011704841 0.0003141807 -0.00063992187 -0.0022089554
0.0004932473 0.00086945546 -9.847037e-06 0.00050757383 0.00029989047 -8.787258e-05 -0.00023561249 -0.0028289834
-0.004800247 0.00044985875 -0.00054618134 -0.0019588717 -0.00038933492 -0.0014502909 -0.0027960464 -0.00089797104
-0.0030797708 -0.0047129793 0.00017826006 -0.0017489593 -0.003163997 0.00041118864 -0.0013149007 -0.0032544653
-0.00078874937 -0.0011956809 -0.0024746223 -0.00086960994 -0.0040364433 -0.003582927 -0.0011760838 -0.0033459945
-0.0022291262 -0.0009175514 -0.0003310758 -0.0015865982 0.00034573252 -0.0017308235 -0.0032398105 -0.00046009166
-0.0024411075 -0.0033885213 -0.0010427013 0.0002360878 -4.549092e-05 -0.00082986586 0.000514021 0.0018379013
-6.7740344e-05 -0.0021641743 -0.00080782216 -0.00092149945 0.00033702943 0.0004903104 -0.0002584685 0.00076564634
0.0003709466 0.00010473022 -0.0020458822 -0.0016392533 -8.5876454e-05 -0.00095258636 0.00019486343 -9.503906e-05

exp_avg_sq f4 [16, 8, 3, 3]
00000000: 179e d338 7b71 a738 dee7 7a38 f63d b338
00000010: 78c5 e538 5a51 f838 2aba 4438 33fe c838
00000020: da11 1e39 cd86 8038 936f 5338 b9ac 1c38
00000030: 9e5b 3a38 dc91 6538 00d7 5738 f1d3 dc37
00000040: 9d6b 4638 bec9 a638 92cc 9237 a9d0 d836
00000050: 0792 1137 ff63 1838 e782 9737 9637 8a36
00000060: 7d6f fd37 e4e4 3638 08e7 0538 86ee a037
00000070: 87de 2437 5805 1937 d2b3 dc37 528e 4637
00000080: 9caa 5636 58f1 aa37 1580 eb37 579c d737
00000090: 72f2 c837 e1e8 bc37 1539 5a37 8f83 fc36
000000a0: b561 a837 93e3 0d38 c5e7 3b36 ea27 a936
000000b0: b4a1 6f37 0dcd fb37 b380 f837 3bfa 8137
000000c0: 3377 8737 4f01 fa37 87d1 ed37 5653 a636
000000d0: 85d1 3937 2d78 d737 dda5 1638 95ff e437
000000e0: c3bd 9637 9344 cd37 ad3d 2238 8fdb 5438
000000f0: 8c91 1a37 009a b837 2141 2b38 e0fe 2d38
00000100: 6d41 1738 e4c2 db37 5d50 f237 bf89 2538
00000110: e3c9 3738 55e5 9d37 7ba2 0a38 166c 7d38
00000120: 93e8 8038 72b1 9e38 d928 cd38 0d70 6438
00000130: bf62 b338 3e00 d638 5b27 0838 a2c4 ca38
00000140: 59b4 0139 4420 2538 fadf ea37 5676 5338
00000150: 5793 2038 8ae3 2438 c6db 9538 1665 c337
00000160: 5805 0438 3306 a238 5606 2f37 3b07 ff36
00000170: f526 9136 a340 e237 b08e fd37 2105 a637
00000180: 0ff9 7837 fd70 ae37 b984 1d37 5ec4 2537
00000190: d2fb 8c36 c84a bc36 5ea8 ca37 e20e bc37
000001a0: 50bb ac37 31f1 2f37 b25e 1737 d65d fe36
000001b0: fb49 b337 5a86 c537 ccbf d037 b5c1 df36
000001c0: ec61 2f37 41d9 8237 0181 4d36 ca1b 3537
000001d0: 2516 0438 5049 d137 81b7 6237 888f 9f37
000001e0: 97a6 9c37 56a0 4437 1c44 e237 ad34 3737
000001f0: 4d01 0937 80c7 2238 e6f2 e537 21ed 0b38
00000200: fac0 1a38 d5f5 8f37 fed5 c737 b513 e637
00000210: a836 0037 69a0 dd37 d025 2b38 ff6e d137
00000220: d7ce d637 1c46 3038 66d1 bc37 9a87 0138
00000230: 1075 4b38 4120 5837 cf3e 0038 a1f0 6c38
00000240: 43ac 6039 751c 9739 d1c7 a539 bd11 2f39
00000250: ff2b 3839 1ab7 3839 2f2b c938 dada f738
00000260: 8ba3 7639 c7fc e438 cbf9 0639 275b 2a39
00000270: 2d9f 0139 4e95 1739 cecc 0c39 e834 9338
00000280: 4155 5d38 e7e5 8f38 0b1e 0938 c983 1d38
00000290: 04c9 4e38 578e 9638 a1ed df38 94cd e138
000002a0: 7829 df37 2038 e337 f9f9 ac37 81b6 f037
000002b0: 08c5 0a38 1e8d 5338 e715 8d38 5236 cb38
000002c0: 3111 b138 cbcf f137 bb94 a237 4e4e 2c37
000002d0: 9a18 5e38 80fa 9338 95b7 8138 2e52 3037
000002e0: 80ad d536 cb70 0437 9360 1638 e9f9 4538
000002f0: 847a 8e38 d9ca 7a38 f379 1a38 f371 3238
00000300: cebb 4238 fc68 0738 4aca 1a38 cb37 2138
00000310: 8b83 dc37 4003 e037 cfeb bb38 2f0e fd38
00000320: 552d f538 f871 2738 bef5 0538 5c19 0b38
00000330: 4fea 0138 1fad 4438 9d13 d338 e1b6 a738
00000340: 7442 e538 45c7 0639 f136 a538 93df af38
00000350: fe85 9838 851c 3038 5215 2438 880a 9a38
00000360: abec 1238 7fab fd38 73e1 8039 fc5e f538
00000370: 4884 8d39 d607 9f39 f0cc 6d39 229b a639
00000380: 9388 8839 799b 5e37 549e b737 24c9 ca38
00000390: 330d b837 ce30 ce38 5f99 3939 7127 a438
000003a0: d120 3839 82b4 3439 ecb2 6037 8930 c337
000003b0: cc46 fc37 e258 1537 34dd eb37 3b66 8e38
000003c0: 2fa1 0838 b965 4e38 5d04 5a38 a4ef 2837
000003d0: 753a 1937 6b78 9e37 760c a536 8f37 c437
000003e0: 6ac9 8e38 ea37 d937 e794 4438 15d9 4738
000003f0: 07e6 5e37 9d2a 2138 e605 8a38 8179 2f38
0.000100907106 7.984318e-05 5.9820588e-05 8.546926e-05 0.00010956352 0.000118407144 4.690342e-05 9.5840915e-05
0.00015074704 6.128624e-05 5.041023e-05 3.735416e-05 4.443118e-05 5.4733697e-05 5.146023e-05 2.6324737e-05
4.73071e-05 7.953074e-05 1.7499817e-05 6.461593e-06 8.676673e-06 3.6332753e-05 1.8061559e-05 4.1191915e-06
3.0211866e-05 4.3605352e-05 3.1924836e-05 1.9184557e-05 9.826973e-06 9.120755e-06 2.6309779e-05 1.1834856e-05
3.1987793e-06 2.0377964e-05 2.8073826e-05 2.5702799e-05 2.3954755e-05 2.251979e-05 1.3007103e-05 7.5255007e-06
2.0072659e-05 3.3828965e-05 2.800008e-06 5.041239e-06 1.42831595e-05 3.0017016e-05 2.9623834e-05 1.5494521e-05
1.614876e-05 2.9802932e-05 2.835017e-05 4.956887e-06 1.1075642e-05 2.5685958e-05 3.591726e-05 2.7298733e-05
1.7969758e-05 2.4469837e-05 3.868125e-05 5.074922e-05 9.213003e-06 2.2006221e-05 4.0830233e-05 4.1483785e-05
3.6062138e-05 2.6197587e-05 2.888607e-05 3.946735e-05 4.381862e-05 1.882265e-05 3.3053086e-05 6.0420563e-05
6.146836e-05 7.567079e-05 9.78277e-05 5.446379e-05 8.553778e-05 0.0001020436 3.246158e-05 9.668736e-05
0.00012369583 3.9369115e-05 2.7999271e-05 5.041653e-05 3.8284194e-05 3.931256e-05 7.14581e-05 2.3292883e-05
3.147623e-05 7.725917e-05 1.0432288e-05 7.600434e-06 4.325872e-06 2.6971398e-05 3.0226394e-05 1.979113e-05
1.483994e-05 2.079503e-05 9.388831e-06 9.880487e-06 4.201641e-06 5.6115423e-06 2.4158679e-05 2.2418277e-05
2.0591222e-05 1.048697e-05 9.022349e-06 7.580714e-06 2.1372913e-05 2.3546792e-05 2.4884845e-05 6.6684684e-06
1.0453612e-05 1.5598374e-05 3.062247e-06 1.0794911e-05 3.1491876e-05 2.494888e-05 1.3513375e-05 1.9021114e-05
1.8674224e-05 1.17198415e-05 2.6973015e-05 1.09199145e-05 8.166139e-06 3.880961e-05 2.7412036e-05 3.3361026e-05
3.6896185e-05 1.7161403e-05 2.3822296e-05 2.7427313e-05 7.64212e-06 2.641995e-05 4.0804793e-05 2.4966428e-05
2.5607105e-05 4.2026964e-05 2.2508855e-05 3.0882286e-05 4.8507995e-05 1.2882113e-05 3.0576073e-05 5.6490888e-05
0.00021426477 0.00028822166 0.00031620127 0.00016695909 0.00017563997 0.00017615818 9.5924705e-05 0.00011818642
0.00023521313 0.00010918971 0.00012872291 0.0001624642 0.00012361696 0.00014456103 0.00013427736 7.019361e-05
5.2769905e-05 6.861594e-05 3.2691325e-05 3.755445e-05 4.9301438e-05 7.17907e-05 0.000106777305 0.00010767128
2.6602982e-05 2.7086644e-05 2.06204e-05 2.8695214e-05 3.3085264e-05 5.0437746e-05 6.7274836e-05 9.689912e-05
8.44322e-05 2.88262e-05 1.9381163e-05 1.0270231e-05 5.2951837e-05 7.0561655e-05 6.185394e-05 1.0509551e-05
6.3680927e-06 7.894075e-06 3.585273e-05 4.7201207e-05 6.793908e-05 5.979356e-05 3.6830035e-05 4.254463e-05
4.642811e-05 3.2284282e-05 3.6904858e-05 3.8437352e-05 2.6287298e-05 2.6704394e-05 8.9607776e-05 0.00012066622
0.00011690954 3.9922044e-05 3.1938536e-05 3.31638e-05 3.0974214e-05 4.6891273e-05 0.00010064917 7.9972444e-05
0.00010931949 0.0001285347 7.878047e-05 8.386294e-05 7.272883e-05 4.198823e-05 3.9120503e-05 7.345254e-05
3.5029527e-05 0.00012095924 0.00024582035 0.000117002026 0.00026992173 0.00030332681 0.00022678426 0.0003177757
0.00026041697 1.326843e-05 2.1889027e-05 9.669576e-05 2.1940656e-05 9.831936e-05 0.0001770011 7.827476e-05
0.00017559832 0.00017233382 1.3393099e-05 2.3268412e-05 3.0073708e-05 8.901787e-06 2.8117189e-05 6.7901296e-05
3.257504e-05 4.9208964e-05 5.1979314e-05 1.0069376e-05 9.133121e-06 1.8891142e-05 4.918834e-06 2.3390892e-05
6.808604e-05 2.5894453e-05 4.6868718e-05 4.764747e-05 1.3285789e-05 3.8425078e-05 6.5814515e-05 4.183641e-05

exp_avg f4 [16]
00000000: 46be fdba 7c37 1a3b c1a6 29ba 29ba 11b8
00000010: 70eb 133b a2cb 923a 1cdf 783a a017 a03a
00000020: 17ae 67b9 0429 343a 2eef 9eba 1f08 69ba
00000030: 7774 5b3b 39d8 c33b 4afa 613a 9615 c73a
-0.0019359074 0.0023531606 -0.00064716866 -3.474407e-05 0.0022570752 0.0011199603 0.0009493695 0.0012214072
-0.0002209473 0.0006872567 -0.0012125724 -0.0008889455 0.0033486167 0.0059767035 0.0008620365 0.0015188928

exp_avg_sq f4 [16]
00000000: e6ec 0338 42f2 1038 59a5 9f38 41c7 8538
00000010: 7ada 4438 9423 8338 b3b4 3d38 9d6a 2238
00000020: 1f5a 9238 15d6 d338 b790 8338 738e 2338
00000030: c8bd 0d39 323e af38 73e2 8138 1a20 0b38
3.1453463e-05 3.4557896e-05 7.612509e-05 6.379048e-05 4.6933514e-05 6.253194e-05 4.52294e-05 3.87231e-05
6.978609e-05 0.0001010114 6.273522e-05 3.8994895e-05 0.00013517507 8.356235e-05 6.193379e-05 3.317008e-05

exp_avg f4 [10, 784]
00000000: 880a af31 0221 cb37 fe4b 41b8 71f7 1037
00000010: 2cea 14b9 a496 c62a d8ef db25 c990 0ab5
00000020: 5bd8 3ab9 3d51 01ba a4f5 56b9 583d adba
00000030: 9365 7fb9 88ae 9837 f71b c6b8 ea3d 2ab9
00000040: ed84 7739 eb0e 86ba eb40 bcba 3fff ccb8
00000050: c033 7e37 9470 ff37 51c7 b1b9 79a3 31ba
00000060: 5174 8536 b27d b5b9 0263 c737 2896 32b9
00000070: e57e 2d34 7376 58b7 4f36 a9ba 8094 b1ba
00000080: dfbb 5bb9 13cd 3439 a847 49b9 6e34 4435
00000090: ac3f f338 b488 99ba 5ad2 3dbb 8c36 c237
000000a0: 0743 10b8 5432 83b6 45f7 0d26 0de1 66b2
000000b0: c1dd f633 b542 3dba fd63 49ba 7ff5 57b7
000000c0: 17eb 42b4 85cd 7b2d 9402 b7b5 1480 ceb6
000000d0: 0de2 3437 2d2e 1f38 f4ee 0835 89c0 9730
000000e0: b36c 6e30 dedb e4b8 7b3e fa38 1934 06bb
000000f0: d0a9 23ba 9533 71b9 1152 6738 bf7b 04b6
00000100: 65b7 84b7 7ba8 91ba 83e7 d2ba e2a7 0fb9
00000110: 484c a439 0b83 4bb8 4db3 bfb6 7c69 4f39
00000120: 36e2 beba db12 4cba 6e7f bfb9 0fed 3437
00000130: 1f2c 9b38 b3f1 4eb5 4e45 b439 325e 9fba
00000140: c8e0 97ba e15b 5337 849b 22b9 04c5 92b8
00000150: 0790 f2b2 e96f f0b5 86be a0ba ccd3 0c39
00000160: 63f5 50b9 39d8 87b9 c70e 6938 fa4a 2728
00000170: 8038 08b2 ed9d 01b9 fece 72ba 035c fdb8
00000180: b44d 2635 1a56 23b3 0565 52b7 d9c4 adb7
00000190: cb09 97b9 75cd 80b9 9b6d 1138 c252 b7b7
000001a0: 1358 19b6 d802 97b7 6a96 11b8 93fa 20b7
000001b0: 9765 e138 9ad5 68b8 cfff 4f38 3338 8d37
000001c0: 2781 9336 967a 7037 2054 38ba 39b6 393a
000001d0: 4889 493a 6cb5 e638 8fec 9836 bede 9fb8
000001e0: 3de1 75b8 87cd 2238 a18b 08ba 5bd4 f9b9
000001f0: 7446 1ab9 46c6 e538 8d99 7bb8 1b10 9ab9
00000200: 8f15 4b37 4498 7f39 e911 ee39 121f b3b8
00000210: ee0e 1fb9 44fd 6038 70d1 ae39 d4be 093a
00000220: 960b a7b9 ba4d 9dba 0076 9dba d7ef 7436
00000230: 9a4a 8935 fe5e 86b7 6f07 9eba bd9a 6ebb
00000240: 1f81 9eba fbec 6cb8 f9d0 2136 2a89 29b2
00000250: b202 f8b5 7cf8 89b8 5632 8bb9 6681 4dba
00000260: 9492 ad39 49cf ad38 bc8e 2232 32dd 9ab9
00000270: 3220 93bb 8052 83bb 6a36 8e3a 9ff3 fdb9
00000280: 1e40 b538 0795 f4b6 91e7 65ba 7eed 30bb
00000290: a633 a73a eb49 68ba 8102 0cba 6093 8fb8
000002a0: 2bc3 62b9 f367 4138 a806 af3a 5759 2e3a
000002b0: 2cf6 3f3a d978 9639 baaa c5b5 6da3 0e38
000002c0: b8d6 a439 069f b937 271f 973a c213 83b9
000002d0: 5575 f2b9 c5aa 6eb4 e40a 3238 8a05 f138
000002e0: 7803 cf37 f22a e538 fae0 6338 8037 22b6
000002f0: e976 50b4 69dd 9cb6 c692 0b37 72f5 64ba
00000300: b9cc 0fba b8e3 5f35 13c3 a4ad ddf6 3a9a
00000310: 1afb 01b8 3422 ceb5 2108 ed36 757e 63b7
00000320: 17c0 f9b6 ee62 d131 3ab4 d425 3638 e5b5
00000330: 64f5 0f37 df65 0e37 e631 8d39 22ed 96b9
00000340: 7f0d 2638 469c 79b7 19b1 c2b9 50db b0ba
00000350: f12d f8ba 176d 29ba 6f78 e738 d1d4 9eb6
00000360: 6b43 80b8 bcab 3ab9 a0fc 4dba b9c5 cf38
00000370: 0ddd 18b9 f3ae 18ba bb5c dfb9 e34d 1338
00000380: 5a1d 82b7 1c52 ab38 879b 1eba 5bed 74ba
00000390: 4691 3eb8 93bf ad36 f19f abb8 a402 a938
000003a0: de4f 143a 70be f8ba 7b1a 4ebb 644b 88ba
000003b0: d8c1 56b9 53e1 1a38 e535 1c31 2ad1 8637
000003c0: 8d60 b0ba 6f38 05bb 0a16 4eba 2e19 3636
000003d0: 7b47 d3ab 5198 0732 9563 bbb7 9668 41ba
000003e0: 3fdb 1cba 92e8 a2b8 cc63 8538 8c2f 2137
000003f0: 8ea1 57b6 6dee fbb9 6ba5 bdba 8f1b 68bb
5.0943676e-09 2.4214856e-05 -4.608556e-05 8.640681e-06 -0.00014201616 3.5276393e-13 3.8152969e-16 -5.1619696e-07
-0.00017818941 -0.0004933065 -0.00020500139 -0.0013217134 -0.00024356534 1.8201084e-05 -9.4465846e-05 -0.00016235528
0.00023605274 -0.0010227835 -0.0014362609 -9.775021e-05 1.5151629e-05 3.0450792e-05 -0.00033908573 -0.00067763735
3.97725e-06 -0.0003461666 2.3768753e-05 -0.0001703134 1.6158045e-07 -1.2902182e-05 -0.0012909862 -0.0013548285
-0.00020955455 0.00017242534 -0.00019195548 7.3091985e-07 0.00011599003 -0.0011713714 -0.002896449 2.3152003e-05
-3.43947e-05 -3.909963e-06 4.9254315e-16 -1.3438933e-08 1.14956045e-07 -0.0007219718 -0.0007682441 -1.2872158e-05
-1.8153183e-07 1.4313333e-11 -1.3635313e-06 -6.1541887e-06 1.0781468e-05 3.795156e-05 5.101167e-07 1.1041418e-09
8.6738366e-10 -0.00010912841 0.00011932567 -0.002047783 -0.00062432606 -0.00023002767 5.5151122e-05 -1.9741562e-06
-1.5821026e-05 -0.0011112833 -0.0016090724 -0.00013700084 0.00031337352 -4.8521015e-05 -5.713117e-06 0.00019780354
-0.0014563266 -0.0007784792 -0.000365253 1.0784031e-05 7.399194e-05 -7.70927e-07 0.0003438391 -0.001215881
-0.0011587376 1.2597972e-05 -0.00015507458 -6.9985195e-05 -2.8238004e-08 -1.7913964e-06 -0.0012263812 0.00013430341
-0.0001992784 -0.00025910305 5.556529e-05 9.28662e-15 -7.9290885e-09 -0.0001236123 -0.00092624116 -0.000120811186
6.195289e-07 -3.8029704e-08 -1.2540496e-05 -2.0714871e-05 -0.0002880826 -0.0002456714 3.4672772e-05 -2.1853837e-05
-2.2850043e-06 -1.8001927e-05 -3.4710778e-05 -9.5950845e-06 0.00010747759 -5.5512042e-05 4.9590886e-05 1.683468e-05
4.3959767e-06 1.43336565e-05 -0.00070315786 0.0007084343 0.0007687998 0.00011001047 4.557492e-06 -7.6232e-05
-5.862232e-05 3.8815222e-05 -0.00052087946 -0.00047651198 -0.0001471283 0.00010956502 -5.998607e-05 -0.00029385168
1.2104762e-05 0.00024375418 0.00045408242 -8.5411724e-05 -0.00015168983 5.3641634e-05 0.0003334391 0.0005254571
-0.00031861354 -0.0012001314 -0.0012013316 3.6498438e-06 1.0229007e-06 -1.6018279e-05 -0.0012056659 -0.003640815
-0.0012092924 -5.648749e-05 2.4112508e-06 -9.868282e-09 -1.8478224e-06 -6.578953e-05 -0.0002654965 -0.0007839411
0.0003310634 8.287893e-05 9.462095e-09 -0.00029537972 -0.004489922 -0.0040076375 0.0010849957 -0.00048437432
8.642695e-05 -7.2891157e-06 -0.0008770163 -0.0026997025 0.0012756481 -0.00088611123 -0.0005340949 -6.846222e-05
-0.00021625745 4.6111596e-05 0.0013353424 0.0006650886 0.0007322754 0.00028700268 -1.4727332e-06 3.400764e-05
0.00031440496 2.212777e-05 0.001152967 -0.00025000988 -0.00046245256 -2.2227603e-07 4.244865e-05 0.00011492807
2.4677938e-05 0.0001092757 5.4330543e-05 -2.4172186e-06 -1.9414769e-07 -4.674938e-06 8.319219e-06 -0.0008734084
-0.0005485523 8.340535e-07 -1.8731272e-11 -3.8663313e-23 -3.0989853e-05 -1.535815e-06 7.0640967e-06 -1.3559697e-05
-7.4431405e-06 6.0939476e-09 3.6898264e-16 -1.7078189e-06 8.580599e-06 8.487578e-06 0.00026930793 -0.00028786907
3.9590053e-05 -1.4877942e-05 -0.00037134512 -0.0013493095 -0.001893459 -0.0006463094 0.00011037371 -4.733542e-06
-6.116073e-05 -0.00017802318 -0.00078577735 9.907358e-05 -0.00014578197 -0.00058244093 -0.00042602964 3.512007e-05
-1.5510876e-05 8.1692095e-05 -0.0006050397 -0.000934323 -4.5434826e-05 5.178104e-06 -8.183707e-05 8.05904e-05
0.0005657653 -0.0018977653 -0.003144889 -0.0010398445 -0.00020480843 3.692631e-05 2.2731623e-09 1.6071444e-05
-0.0013456509 -0.0020327826 -0.00078615604 2.713477e-06 -1.5012292e-12 7.892667e-09 -2.2338509e-05 -0.000737795
-0.0005983598 -7.7680816e-05 6.360523e-05 9.607418e-06 -3.2131534e-06 -0.00048052092 -0.0014468854 -0.0035416817

exp_avg_sq f4 [10, 784]
00000000: 5a34 8b2f e733 b134 d58a dd35 c694 a235
00000010: c7c0 c435 86ce 8231 7bcf 932d f5c3 3c34
00000020: ed81 ab35 636c 2136 4987 0437 d60a db37
00000030: 4a0b e136 6dbd 2e35 1320 6734 e762 b835
00000040: 8122 3c36 96c1 9037 ead6 2f38 7f15 e437
00000050: c61d 0835 9c74 ec34 05ed 9136 cd90 8036
00000060: 6928 f635 a6f2 ce37 a2ac ac37 ea5a 1f35
00000070: dad7 1135 0aee c937 0957 8038 0a71 6637
00000080: 9a11 6c35 3e1a 9a36 9c5c e135 54e9 1c34
00000090: 70ab 9a36 8591 bd38 3599 2538 e520 3336
000000a0: 420e 2c36 419a 9935 99e5 bd2b 1bfe 452f
000000b0: 6d8f 2033 8d92 8635 45c4 f835 8126 9334
000000c0: c158 4532 b5a2 3c30 d185 9933 ab7f 9f35
000000d0: b9aa 7135 ee19 9135 e077 e932 8ee1 af2d
000000e0: a343 e230 cd35 b935 045b c036 872f 5337
000000f0: d3e7 1138 4907 1a37 06e8 3735 63f7 b432
00000100: 2afb af36 16bc cf36 9c33 0e37 1c08 0c38
00000110: 728b d337 0230 2f35 c652 4934 6c12 4037
00000120: a0d8 0c37 76a1 5936 818b b937 2bd6 a837
00000130: 3a80 9835 d53b ae32 00bd 2f37 23db 6037
00000140: aeb7 8536 947d 7436 ea4f 2836 e9da dc35
00000150: aec9 222f 069c 7734 bc1d 2937 5c01 8037
00000160: 7c5e ae36 c69f 6035 7c8e a434 016e c62d
00000170: 3cb5 f732 6d2e 4135 7971 eb35 460f a834
00000180: d46c 5233 57c1 9230 09e1 5b31 b125 2834
00000190: 1128 6135 d437 fa35 b6b4 bc35 3de4 e534
000001a0: 89a6 bf32 bdd7 9632 0906 1135 e2dd 5e36
000001b0: 3986 8037 4ba8 9a37 c436 2e37 d60c d235
000001c0: 16b2 ca32 32e1 4935 ffee 1237 e652 2b38
000001d0: 01c1 0138 1df2 0c37 549a f635 249f 6835
000001e0: 258f b236 7faa 3837 8718 0e38 f054 b637
000001f0: ec76 d736 afbf 3236 98f9 3d35 856f de36
00000200: ac26 b337 9159 1338 1201 f137 84b9 c137
00000210: d3e7 d036 2cd3 f935 9fcb 0238 03c0 2639
00000220: f78f 6039 c2dc dd38 3f25 e837 64ef 6636
00000230: 2017 0035 90b6 d436 0f53 4438 bb1c a138
00000240: 3065 af37 e2d8 ce35 0f5b 7c33 76fc b32f
00000250: b7c7 9231 7176 0137 66d9 a437 af73 be37
00000260: 34f7 7637 fbf3 fa34 f849 da33 5e4d 7a37
00000270: 20cf 1739 178b 7039 7cc5 d638 fe81 b237
00000280: 611c c635 43bc af34 a897 4e38 b2de 3539
00000290: 6d1e 0b39 1abd 3638 e96c 1b37 3f2b 3e36
000002a0: 6e15 d935 ea58 5838 3e20 f738 3044 3638
000002b0: 63e4 4d38 6b5a ac37 a848 3235 1a66 4936
000002c0: 0171 fa37 15d7 af37 9355 a538 0112 ea38
000002d0: 704c a737 2dc2 0233 a897 c635 bc38 d936
000002e0: d980 ae36 72bd 3b38 dfb5 1538 08c2 ca34
000002f0: 674f 082f c417 9734 943b 5535 7cd5 4e36
00000300: 4549 6934 023b c532 9757 ef2e 84d3 502e
00000310: ee9f 8432 b863 a834 470c 7834 dd58 5835
00000320: 1b3b 5f33 f4c9 882f bdb2 a12d 218a 0435
00000330: 4ed2 5836 5a9d 4237 5d12 1238 b409 ea37
00000340: 4efb a336 ace9 c434 f575 fe35 cc3b 4637
00000350: 4aca 6c37 313c 3238 b2eb 8f38 1617 2537
00000360: 9a8f 5a34 22fd ad36 8eb7 8837 2567 ed36
00000370: 91cf b937 c2fd 0738 2df0 6337 4e1e 1834
00000380: f951 2537 4d86 ab38 740d a538 eab6 c937
00000390: a743 8837 0653 d036 a57f 8c35 436f 9236
000003a0: 2456 cf38 00f0 9539 be82 6939 3be3 2f38
000003b0: 0156 4536 2437 2034 ba86 c632 79d0 a335
000003c0: d7c6 c036 2f92 0b37 f3ff 9235 878f c333
000003d0: 9802 7c2e 31bd 1031 cef3 7e35 a086 5137
000003e0: 430d f937 6660 0638 ecd6 6837 9e09 5634
000003f0: 07a4 0534 3e1d 8f36 cebc fb37 111a ed38
2.532115e-10 3.3006583e-07 1.6506189e-06 1.2113239e-06 1.4659244e-06 3.806977e-09 1.6804105e-11 1.7580153e-07
1.2778306e-06 2.405396e-06 7.899312e-06 2.611188e-05 6.7068368e-06 6.50957e-07 2.152522e-07 1.3737853e-06
2.8034267e-06 1.7256283e-05 4.1923406e-05 2.7189728e-05 5.0707274e-07 4.404327e-07 4.3489295e-06 3.8315543e-06
1.8340189e-06 2.4670106e-05 2.0584386e-05 5.9364413e-07 5.4330815e-07 2.4071913e-05 6.119727e-05 1.3735387e-05
8.7942465e-07 4.5926126e-06 1.6790759e-06 1.4613516e-07 4.6095156e-06 9.0393274e-05 3.948175e-05 2.6692226e-06
2.5638296e-06 1.1444282e-06 1.3492984e-12 1.8007322e-10 3.7383348e-08 1.002643e-06 1.8534562e-06 2.74089e-07
1.14870895e-08 6.862522e-10 7.148959e-08 1.1883579e-06 9.002793e-07 1.0810888e-06 2.7179283e-08 1.9995363e-11
1.6462888e-09 1.3799232e-06 5.7326415e-06 1.2587646e-05 3.4786597e-05 9.1808115e-06 6.851045e-07 2.1067256e-08
5.2446458e-06 6.190977e-06 8.475876e-06 3.3386154e-05 2.5218094e-05 6.526244e-07 1.8749697e-07 1.1448381e-05
8.395087e-06 3.2429502e-06 2.211868e-05 2.012689e-05 1.1362201e-06 2.0283474e-08 1.0474818e-05 1.3402462e-05
3.985092e-06 3.643193e-06 2.5080467e-06 1.6454989e-06 1.4805465e-10 2.3060429e-07 1.0080108e-05 1.5259422e-05
5.1966035e-06 8.3679004e-07 3.0651051e-07 2.2558845e-11 2.8837e-08 7.196566e-07 1.7541889e-06 3.130355e-07
4.8993414e-08 1.0677849e-09 3.1996612e-09 1.5659931e-07 8.3877336e-07 1.86427e-06 1.4059685e-06 4.282064e-07
2.2311058e-08 1.7560405e-08 5.402549e-07 3.320973e-06 1.5321291e-05 1.8436598e-05 1.0383959e-05 1.5649955e-06
2.359688e-08 7.520604e-07 8.757924e-06 4.0846782e-05 3.0935746e-05 8.401022e-06 1.8373344e-06 8.6658315e-07
5.3214776e-06 1.1006951e-05 3.387828e-05 2.1735643e-05 6.4213436e-06 2.6635641e-06 7.0771193e-07 6.629098e-06
2.135647e-05 3.5130946e-05 2.8729937e-05 2.309378e-05 6.225871e-06 1.8613405e-06 3.1184052e-05 0.00015902524
0.00021415936 0.000105792205 2.76739e-05 3.4412014e-06 4.7717367e-07 6.3393454e-06 4.6807396e-05 7.68243e-05
2.0908745e-05 1.5411317e-06 5.875614e-08 3.2739295e-10 4.271864e-09 7.716576e-06 1.9651558e-05 2.2703634e-05
1.4720299e-05 4.6743648e-07 1.0164871e-07 1.4919175e-05 0.00014477642 0.00022939999 0.000102410995 2.1279786e-05
1.4760409e-06 3.2733269e-07 4.925547e-05 0.00017344466 0.00013267407 4.3568296e-05 9.264078e-06 2.8337379e-06
1.6173997e-06 5.158122e-05 0.000117838834 4.3455686e-05 4.908851e-05 2.0546102e-05 6.6415896e-07 3.0010765e-06
2.9854944e-05 2.0961781e-05 7.8837526e-05 0.00011161343 1.9943545e-05 3.0444586e-08 1.4796287e-06 6.4737087e-06
5.200604e-06 4.476071e-05 3.569375e-05 3.7766608e-07 1.2397337e-10 2.8143234e-07 7.943538e-07 3.0820656e-06
2.1726471e-07 2.2960652e-08 1.0884021e-10 4.7481588e-11 1.543955e-08 3.1364993e-07 2.3101266e-07 8.0595584e-07
5.197499e-08 2.4881752e-10 1.8382957e-11 4.9374836e-07 3.2308922e-06 1.1599937e-05 3.4826215e-05 2.7899492e-05
4.8870343e-06 3.6677864e-07 1.8958805e-06 1.1815642e-05 1.4113795e-05 4.2494565e-05 6.862673e-05 9.8401415e-06
2.0355074e-07 5.1852703e-06 1.6297938e-05 7.075158e-06 2.2150374e-05 3.242284e-05 1.3586175e-05 1.4167128e-07
9.853852e-06 8.178931e-05 7.870319e-05 2.4046243e-05 1.6243966e-05 6.2085483e-06 1.0467962e-06 4.3640916e-06
9.886574e-05 0.0002859831 0.00022269317 4.1934876e-05 2.9405348e-06 1.4921221e-07 2.31115e-08 1.220512e-06
5.745194e-06 8.319082e-06 1.0952339e-06 9.1065026e-08 5.730047e-11 2.10623e-09 9.4977156e-07 1.2488716e-05
2.9689289e-05 3.2037868e-05 1.3878318e-05 1.9933802e-07 1.2446263e-07 4.2651363e-06 3.000945e-05 0.00011305896

exp_avg f4 [10]
00000000: dc6f 5aba e316 ca38 8b1c 93ba c1d0 13bb
00000010: 6e08 ca39 58f8 123b d440 69b9 842c 063a
00000020: 247d 553a 43d5 c839
-0.00083327084 9.6363736e-05 -0.0011223716 -0.0022554847 0.00038534723 0.0022425856 -0.00022244762 0.00051183277
0.00081439526 0.00038305865

exp_avg_sq f4 [10]
00000000: 81d4 1a37 0557 5e37 46df 9e37 bc84 a237
00000010: 7591 9c37 a842 8837 3644 4337 eddd ca37
00000020: 9343 e437 0dc2 f537
9.228593e-06 1.3252492e-05 1.8939038e-05 1.9373714e-05 1.8664383e-05 1.6243503e-05 1.1638787e-05 2.4183619e-05
2.7211185e-05 2.9296638e-05
