boiler-plate-code/checkpoints/mnist_checkpoint.pth.tar (torch, 38975 bytes, 6 tensors)

conv1.weight f4 [8, 1, 3, 3]
-0.2555376 -0.302653 0.025128726 -0.0029032985 -0.07991796 -0.22883962 -0.1384651 -0.11981845
-0.24485682 0.20915666 0.056701303 -0.21803272 -0.113716535 -0.34508088 -0.15978126 0.237639
-0.11542035 -0.12327352 -0.16363512 0.25167343 -0.17889594 0.2469638 0.27247763 -0.30003923
-0.13523558 0.22493917 0.0012207349 -0.26882166 0.042407796 -0.24281761 -0.2565201 -0.180595
-0.124232866 -0.32193318 0.0033805808 -7.124602e-05 0.32018706 -0.16444138 -0.117214754 0.29047444
0.63570935 0.6532899 1.0749198 1.1603003 0.9636614 -0.071955904 -0.23095514 -0.2839365
-0.06630984 -0.2483968 -0.17520638 0.27373648 -0.2980658 -0.25966495 0.70352334 0.6221056
0.18033867 -0.17270547 -0.102544315 0.49130598 0.17453374 -0.29165527 0.18312185 0.21760029
0.23839724 0.1453619 0.27242023 0.6933534 0.7680323 -0.23199382 0.22527988 0.12628622
00000000: d3d5 82be 56f5 9abe c2da cd3c 4445 3ebb
00000010: 07ac a3bd ef54 6abe ccc9 0dbe 6063 f5bd
00000020: bfbb 7abe 2a2d 563e a03f 683d f843 5fbe
00000030: 37e4 e8bd 71ae b0be b39d 23be a357 733e
00000040: 8161 ecbd d476 fcbd f78f 27be 57db 803e
00000050: 7f30 37be 14e4 7c3e 3082 8b3e be9e 99be
00000060: 327b 0abe 7456 663e 1101 a03a fea2 89be
00000070: ccb3 2d3d 2ea5 78be 9a56 83be e5ed 38be
00000080: cd6d febd 6dd4 a4be bc8c 5d3b ea69 95b8
00000090: 8fef a33e 5263 28be 4a0e f0bd 11b9 943e
000000a0: d9bd 223f 023e 273f f996 893f b884 943f
000000b0: 83b2 763f 9e5d 93bd 817f 6cbe 2060 91be
000000c0: 74cd 87bd bb5b 7ebe 4d69 33be 3027 8c3e
000000d0: 159c 98be cef2 84be 1b1a 343f 5042 1f3f
000000e0: b3aa 383e b4d9 30be c102 d2bd 758c fb3e
000000f0: f9b8 323e d753 95be 4b84 3b3e 9cd2 5e3e
00000100: 681e 743e c0d9 143e aa7a 8b3e 9c7f 313f
00000110: c49d 443f ca8f 6dbe c5af 663e 2d51 013e

conv1.bias f4 [8]
0.48991325 0.3160632 -0.19818206 0.52065736 0.16027685 0.322719 0.12071977 0.022916332
00000000: e9d5 fa3e 09d3 a13e 3df0 4abe cd49 053f
00000010: 9d1f 243e 6d3b a53e ed3b f73d 08bb bb3c

conv2.weight f4 [16, 8, 3, 3]
-0.042432953 0.06500285 0.102059096 -0.053880967 0.036093634 -0.11417772 0.0021757104 -0.050934132
-0.051159136 -0.13605686 0.10762672 0.029675238 -0.08511129 -0.12773505 -0.1215975 0.013446176
0.028609918 0.051112927 -0.030587276 0.026078133 -0.041322466 -0.056518734 0.016521167 0.06876613
0.0059828847 -0.10551616 0.042720236 -0.084742755 0.03740618 0.104019694 -0.0174248 -0.15768217
-0.019945627 0.077987 -0.049897507 0.09405787 0.16534986 0.11957084 0.05642556 0.031617694
0.18759795 0.27567437 -0.36454144 -0.1926408 0.09095267 -0.032002624 0.021417283 0.043101028
0.05102731 -0.115939364 0.09874765 -0.07918491 -0.0026269204 -0.12747179 0.03443417 0.05429821
-0.097307496 0.21565358 0.22894727 0.081448875 -0.0014846674 0.15180929 0.12955071 0.112874135
-0.08453762 -0.14642581 0.15228195 0.076390564 0.18288429 -0.07228054 0.0015306231 0.15590104
0.040934898 0.03610706 0.100771256 -0.009491771 -0.07997473 0.015431419 -0.010379853 0.023504533
0.010232476 0.07715982 0.02725271 0.08552764 -0.05810499 -0.04853385 -0.0787211 0.063386984
0.08955375 -0.090149775 0.092939824 -0.018293496 0.08033222 -0.043705735 -0.032999765 0.10251968
0.069247365 0.013409256 0.03012787 0.117924005 0.06113601 0.1270437 -0.09622967 -0.1045644
0.06796099 -0.0048176604 0.12455012 0.081996 0.024777157 0.11154497 0.13515587 0.09459415
0.20487168 0.13359284 -0.052384306 -0.19485188 -0.10054682 -0.019042838 0.11532974 0.01699436
0.09182895 -0.117740944 0.010578988 -0.020771373 -0.026662255 0.07232458 0.09246762 -0.12532713
-0.026530955 0.13113737 -0.021206921 0.07665141 0.015730426 0.010053582 0.027984392 -0.12833764
-0.12935773 0.051665746 0.16700321 0.018742647 0.05678853 -0.10425994 -0.109364636 0.10590057
-0.049225237 0.009981346 0.0015671066 -0.07675868 -0.018958602 -0.053883485 0.0010856213 -0.120152384
-0.15353467 -0.004659708 0.12871163 -0.008227073 0.0916015 0.11987714 0.0062684314 -0.099651955
-0.10140746 -0.07089866 -0.030117072 -0.08043544 0.060426265 0.03050313 0.14041041 0.012830302
-0.05349392 -0.06308985 0.048797283 0.019128477 -0.048850283 -0.006783041 -0.14097978 -0.0001273064
0.060471278 0.03674557 -0.14770947 -0.071797706 0.25451913 0.2924173 -0.085062854 0.10227337
0.20523068 0.24724466 -0.12146356 0.14400704 0.265907 -0.07904758 -0.016057895 0.04557751
-0.13125578 0.020165998 0.07917544 -0.066599004 -0.1388221 -0.010505307 0.10072528 0.09009612
0.09105937 0.13543738 -0.0071786623 0.06548268 0.17492834 0.1695762 0.05811241 0.21466862
0.13943361 -0.0018720053 0.101720236 0.21271087 -0.08782229 0.065725856 0.17977606 0.26126784
-0.066169895 -0.08178192 0.06813611 -0.09836024 -0.07089474 -0.041796904 -0.06558991 0.0876711
-0.032792084 -0.027943794 -0.0030912787 0.10196624 0.10264138 0.034215365 0.07118233 0.06093144
0.05626687 -0.013250573 0.013931121 0.003526208 0.08639266 -0.08271053 -0.06009577 0.05925799
-0.1037001 -0.0023735245 -0.08088391 -0.14947729 -0.12899585 -0.0079643605 0.1037068 0.0040422287
-0.013364961 0.11398062 -0.02552523 0.12223956 0.3716302 0.3187881 0.1708255 -0.23735604
00000000: 2dce 2dbd 3720 853d 5c04 d13d 4ab2 5cbd
00000010: ebd6 133d 02d6 e9bd 5d96 0e3b 4fa0 50bd
00000020: 3e8c 51bd 7d52 0bbe 666b dc3d 7c19 f33c
00000030: d44e aebd facc 02be 1c08 f9bd 5a4d 5c3c
00000040: 595f ea3c ca5b 513d 2b92 fabc cfa1 d53c
00000050: bf41 29bd 3080 67bd 6657 873c 42d5 8c3d
00000060: 130c c43b db18 d8bd 6afb 2e3d 9c8d adbd
00000070: 3937 193d 4708 d53d 74be 8ebc 6f77 21be
00000080: 0365 a3bc a6b7 9f3d 5461 4cbd 6aa1 c03d
00000090: 7951 293e 8ee1 f43d 7d1e 673d 8e81 013d
000000a0: ad19 403e 3125 8d3e 2da5 babe a143 45be
000000b0: 6545 ba3d 2f15 03bd 4c73 af3c b48a 303d
000000c0: 0302 513d 9e71 edbd 353c ca3d b32b a2bd
000000d0: 6928 2cbb f787 02be d80a 0d3d cd67 5e3d
000000e0: 2749 c7bd 4bd4 5c3e 2771 6a3e abce a63d
000000f0: 2c99 c2ba e573 1b3e f1a8 043e 8e2a e73d
00000100: 0f22 adbd a6f0 15be cdef 1b3e a872 9c3d
00000110: 0546 3b3e d207 94bd 309f c83a 86a4 1f3e
00000120: 5aab 273d ffe4 133d 2961 ce3d 6083 1bbc
00000130: cbc9 a3bd 10d4 7c3c 4210 2abc 948c c03c
00000140: 1da6 273c f805 9e3d 1341 df3c 1e29 af3d
00000150: 7fff 6dbd 6ecb 46bd 8738 a1bd 09d1 813d
00000160: f567 b73d 72a0 b8bd 3c57 be3d 3edc 95bc
00000170: 3885 a43d c904 33bd c32a 07bd d7f5 d13d
00000180: 90d1 8d3d 7fb2 5b3c b9ce f63c 2482 f13d
00000190: c169 7a3d be17 023e 1014 c5bd dc25 d6bd
000001a0: 222f 8b3d 77dd 9dbb 2214 ff3d 85ed a73d
000001b0: 77f9 ca3c b071 e43d 4d66 0a3e 94ba c13d
000001c0: e2c9 513e 90cc 083e ed90 56bd 4087 47be
000001d0: 7eeb cdbd baff 9bbc 0032 ec3d c237 8b3c
000001e0: d110 bc3d 2a22 f1bd 7e53 2d3c ba28 aabc
000001f0: cd6a dabc e91e 943d aa5f bd3d c155 00be
00000200: 7257 d9bc e048 063e 23ba adbc 6afb 9c3d
00000210: 18dd 803c c7b7 243c 863f e53c f16a 03be
00000220: 5a76 04be 769f 533d e402 2b3e 2e8a 993c
00000230: 179b 683d 3c86 d5bd 91fa dfbd 66e2 d83d
00000240: 67a0 49bd cd88 233c 5f67 cd3a a833 9dbd
00000250: 124f 9bbc eeb4 5cbd 684b 8e3a 7412 f6bd
00000260: 3138 1dbe 77b0 98bb fbcc 033e d8ca 06bc
00000270: 9199 bb3d 2582 f53d 6a67 cd3b 5316 ccbd
00000280: b7ae cfbd 5133 91bd 14b8 f6bc 56bb a4bd
00000290: 8881 773d b3e1 f93c bfc7 0f3e 3036 523c
000002a0: 711c 5bbd 4035 81bd a9df 473d 53b3 9c3c
000002b0: 3c17 48bd 4644 debb 015d 10be 8d7d 05b9
000002c0: bbb0 773d 8682 163d 2741 17be ad0a 93bd
000002d0: 5550 823e b8b7 953e 6f35 aebd b374 d13d
000002e0: fe27 523e b42d 7d3e e3c1 f8bd 9576 133e
000002f0: f624 883e b3e3 a1bd d98b 83bc 7caf 3a3d
00000300: ea67 06be 2a33 a53c bc26 a23d 0f65 88bd
00000310: 6127 0ebe 731e 2cbc 0e49 ce3d 5184 b83d
00000320: 567d ba3d 19b0 0a3e fc3a ebbb c91b 863d
00000330: 6a20 333e 62a5 2d3e 4707 6e3d 17d2 5b3e
00000340: afc7 0e3e 135e f5ba b352 d03d e1d0 593e
00000350: 2cdc b3bd 479b 863d 3717 383e e6c4 853e
00000360: 1584 87bd 477d a7bd f28a 8b3d 1871 c9bd
00000370: 4331 91bd 3b33 2bbd 0154 86bd e88c b33d
00000380: fe50 06bd 62ea e4bc 0d97 4abb add3 d03d
00000390: a535 d23d 6925 0c3d 0bc8 913d 3f93 793d
000003a0: 1778 663d ee18 59bc 5b3f 643c f417 673b
000003b0: a3ee b03d 2364 a9bd fb26 76bd 82b8 723d
000003c0: b860 d4bd 228d 1bbb 77a6 a5bd 9310 19be
000003d0: 7d17 04be f37c 02bc 3b64 d43d ac74 843b
000003e0: b6f8 5abc ac6e e93d 4a1a d1bc bc58 fa3d
000003f0: 5046 be3e 3238 a33e e1ec 2e3e 760d 73be

conv2.bias f4 [16]
-0.027070131 -0.0037778823 0.10311812 0.056191254 0.06571139 0.0059564346 0.014992127 0.23144464
0.027203968 -0.04323873 0.037489384 0.035926115 -0.07330219 0.11728351 0.014782425 0.04723835
00000000: 2ec2 ddbc 5996 77bb 982f d33d cd28 663d
00000010: b193 863d 322e c33b 8aa1 753c d3ff 6c3e
00000020: dbda de3c 181b 31bd 788e 193d 4327 133d
00000030: 751f 96bd 5632 f03d fc31 723c 007d 413d

fc1.weight f4 [10, 784]
0.02411144 0.008522445 -0.018271348 0.005928377 -0.03571822 -0.007412763 0.019734288 -0.032537702
-0.028371727 0.017708384 -0.012785478 0.05004642 -0.025365775 -0.037266254 -0.028764645 -0.007145478
-0.026142951 -0.03257209 0.04733507 0.03172122 -0.015906556 0.04062432 0.035939142 -0.0048817834
-0.09169556 -0.051795654 0.0032422137 0.018863894 0.021011706 0.008223386 -0.03321108 -0.029083816
0.0014089656 0.0044310573 -0.020663843 0.015355515 0.007445968 0.07031957 0.001074751 -0.04654428
0.018541586 -0.016319398 0.018754963 -0.041445423 0.0046151495 -0.031082608 0.0043194233 0.017184367
-0.029801404 0.017017115 0.03133023 -0.04047194 0.022286752 0.0005659323 -0.001919498 0.0067227106
-0.030132279 -0.0043064943 -0.039022986 -0.037973993 -0.0046087657 -0.007087906 -0.00077017274 -0.0015036113
0.004520976 -0.02323176 -0.01695355 0.0030986643 0.011078478 -0.025353199 -0.027748343 -0.026836764
-0.030896677 -0.08267158 -0.06663608 0.0022825622 0.0014689208 -0.033843234 -0.009466304 -0.045468822
-0.012427778 0.016177243 -0.024484178 -0.033267587 0.0047269547 -0.040851053 0.009767559 0.03417625
-0.041838545 -0.024418509 0.0016173344 -0.005743837 -0.0019598368 0.0016388878 -0.04705416 0.01494906
0.009703883 0.022192298 0.0276547 0.000986603 0.0007263175 -0.032405354 -0.0064813653 -0.034107544
0.00047476767 -0.009333936 -0.012500633 -0.0023765366 0.052787215 0.077889785 0.0060032536 -0.02468809
0.020271184 -0.036465615 0.00026323038 0.033441912 0.06982362 0.097445756 -0.008281879 0.0018636592
-0.006352135 0.02649255 -0.14225695 -0.0810707 0.054379724 0.06490327 0.020561654 0.0029039974
0.09558408 -0.08756238 -0.046613574 0.04038607 0.04816716 0.017095754 -0.0043520397 0.09159826
0.021579638 -0.012857084 -0.042751003 0.022863122 0.016897973 -0.018349586 -0.012110532 -0.034679364
-0.003346727 -0.009574469 -0.0240102 0.030769024 0.0108387275 -0.030162483 -0.027859636 0.026860936
0.008750842 0.022011086 -0.036045175 0.014610868 -0.002121473 0.0048754853 -0.03406778 -0.014317081
-0.018351728 0.004109807 -0.016745813 -0.02130467 -0.051486783 -0.0007234717 -0.010531611 -0.037006143
-0.023715945 -0.0497498 -0.086601615 -0.032550003 -0.027966293 -0.010078988 0.008441637 -0.013870124
-0.02827715 -0.040791098 -0.06637084 -0.033370566 -0.010152275 0.014449859 -0.0063455165 -0.009408509
-0.017550137 -0.02017754 0.0564521 -0.0003849626 0.0016705832 0.002137595 -0.028182145 0.017898502
0.04972066 0.036022548 -0.0055097123 0.018620007 -0.009212443 0.027271723 -0.00016510344 -0.052126445
0.011523393 -0.043316312 0.022040488 -0.039140068 -0.05477929 -0.012956946 0.01144837 0.05444026
-0.008388629 0.049829915 -0.0040453793 -0.028794065 0.097777665 0.07489326 -0.010406671 0.047861777
0.014409283 -0.02179883 0.025937714 0.1572644 -0.15680315 -0.13744503 0.09209709 0.02309375
-0.022794316 -0.0016396295 0.060550753 -0.07392927 0.0679125 0.03501774 0.01745376 -0.0021045008
0.0028599033 0.07726118 0.039444126 0.020943038 -0.020892126 -0.01121917 -0.018497478 0.019383246
0.0004657733 0.0069160745 -0.059977263 -0.04056646 -0.0078072287 -0.035363704 -0.023481375 0.026933089
-0.008237391 -0.024775254 0.016994992 0.024123915 0.028294098 -0.017863927 -0.0051043415 0.05362419
00000000: 5b85 c53c baa1 0b3c cbad 95bc d542 c23b
00000010: 454d 12bd c3e6 f2bb cda9 a13c 4146 05bd
00000020: d36b e8bc 2c11 913c 2e7a 51bc 7afd 4c3d
00000030: e3cb cfbc 80a4 18bd d5a3 ebbc 9d24 eabb
00000040: be29 d6bc 506a 05bd 6be2 413d 1cee 013d
00000050: 774e 82bc b065 263d ec34 133d 5ef7 9fbb
00000060: e2ca bbbd ae27 54bd 527b 543b 7488 9a3c
00000070: be20 ac3c 61bb 063c 5708 08bd 2f41 eebc
00000080: 0aad b83a 6732 913b 3847 a9bc b395 7b3c
00000090: 4ffd f33b b503 903d a9de 8c3a 37a5 3ebd
000000a0: 86e4 973c 42b0 85bc 02a4 993c adc2 29bd
000000b0: ae3a 973b f4a0 febc f389 8d3b 3bc6 8c3c
000000c0: 1322 f4bc 7a67 8b3c 2154 003d e8c5 25bd
000000d0: b592 b63c 135b 143a aa97 fbba 2f4a dc3b
000000e0: f8d7 f6bc 7e1d 8dbb 91d6 1fbd 9e8a 1bbd
000000f0: 2105 97bb aa41 e8bb 6be5 49ba d314 c5ba
00000100: b224 943b 8850 bebc 2ce2 8abc f612 4b3b
00000110: 8182 353c 83b1 cfbc 7e50 e3bc c6d8 dbbc
00000120: 071b fdbc b84f a9bd 7f78 88bd 0a97 153b
00000130: ce88 c03a 349f 0abd 8f18 1bbc 843d 3abd
00000140: e19d 4bbc 2386 843c 0b93 c8bc 9843 08bd
00000150: 92e4 9a3b 6f53 27bd 1d08 203c 65fc 0b3d
00000160: e55e 2bbd 5309 c8bc bdfc d33a cc36 bcbb
00000170: 9b70 00bb f3cf d63a ddbb 40bd e7ec 743c
00000180: 09fd 1e3c 9fcc b53c 1c8c e23c e750 813a
00000190: 5866 3e3a 7abb 04bd a261 d4bb 5ab4 0bbd
000001a0: 3dea f839 5ded 18bc 74cf 4cbc abbf 1bbb
000001b0: 6837 583d ae84 9f3d f1b6 c43b ad3e cabc
000001c0: c10f a63c f85c 15bd 2f02 8a39 63fa 083d
000001d0: b0ff 8e3d a491 c73d b8b0 07bc 0746 f43a
000001e0: 9225 d0bb e706 d93c ceab 11be 6508 a6bd
000001f0: 46bd 5e3d 01ec 843d ea70 a83c fe50 3e3b
00000200: 96c1 c33d e853 b3bd e0ed 3ebd dd6b 253d
00000210: ee4a 453d 650c 8c3c 8e9b 8ebb de97 bb3d
00000220: c8c7 b03c 85a6 52bc ad1b 2fbd 714b bb3c
00000230: 9e6d 8a3c df51 96bc 416b 46bc f30b 0ebd
00000240: c354 5bbb 3cde 1cbc 0ab1 c4bc 520f fc3c
00000250: eb94 313c 5017 f7bc e439 e4bc 770b dc3c
00000260: b15f 0f3c 9850 b43c 1ba4 13bd 6c62 6f3c
00000270: 6908 0bbb 89c2 9f3b a88a 0bbd 3192 6abc
00000280: 5d56 96bc 8fab 863b 842e 89bc 2287 aebc
00000290: cee3 52bd 5da7 3dba c78c 2cbc c193 17bd
000002a0: f147 c2bc 72c6 4bbd 305c b1bd 2753 05bd
000002b0: 9119 e5bc 5722 25bc cb4e 0a3c 843f 63bc
000002c0: 7ba5 e7bc 9114 27bd 6fed 87bd 93af 08bd
000002d0: ba55 26bc 1abf 6c3c 0dee cfbb 2626 1abc
000002e0: 4ec5 8fbc 5e4b a5bc 513a 673d ced4 c9b9
000002f0: 78f7 da3a e516 0c3b 3ede e6bc e19f 923c
00000300: e4a7 4b3d 618c 133d d18a b4bb fc88 983c
00000310: c9ef 16bc f368 df3c 9e1f 2db9 8a82 55bd
00000320: 9dcc 3c3c 726c 31bd 418e b43c 5651 20bd
00000330: 4060 60bd 5f49 54bc f291 3b3c c0fc 5e3d
00000340: 7670 09bc 741a 4c3d 1a8f 84bb 88e1 ebbc
00000350: a83f c83d a361 993d be80 2abc b60a 443d
00000360: ea14 6c3c 7693 b2bc 547b d43c eb09 213e
00000370: 0191 20be 64be 0cbe 669d bc3d 1b2f bd3c
00000380: 25bb babc d6e8 d6ba 1104 783d 3b68 97bd
00000390: b515 8b3d c36e 0f3d 30fb 8e3c aaeb 09bb
000003a0: 376d 3b3b 1c3b 9e3d 2a90 213d bc90 ab3c
000003b0: f725 abbc 9cd0 37bc 0688 97bc 9dc9 9e3c
000003c0: 0933 f439 3da0 e23b b8aa 75bd 0429 26bd
000003d0: c8d3 ffbb 88d9 10bd 035c c0bc c8a2 dc3c
000003e0: 1ff6 06bc 79f5 cabc 1539 8b3c 849f c53c
000003f0: 06c9 e73c 5f57 92bc 5242 a7bb 0aa5 5b3d

fc1.bias f4 [10]
-0.028264957 0.10807366 -0.026295701 -0.019559007 -0.014595944 -0.026624374 0.022824015 -0.0016143617
-0.00767042 0.009382873
00000000: e98b e7bc b955 dd3d 156a d7bc 363a a0bc
00000010: d423 6fbc 5c1b dabc 6ef9 ba3c fd98 d3ba
00000020: 2658 fbbb 9fba 193c
